Final Project/Part 2/AgentQ.pt (torch, 12094 bytes, 5 tensors)

fc1.weight f4 [32, 8]
0	0xbe9f43a5	-0.31106296
1	0xbd2eec29	-0.04270569
2	0xbece2b59	-0.40267447
3	0x3dcbd97b	0.099535905
4	0xbee3c896	-0.44488972
5	0xbe9dda55	-0.30830637
6	0x3e1f59de	0.15561625
7	0x3d6371e1	0.055528525
8	0x3eb25335	0.34829107
9	0x3e4195d6	0.18904814
10	0xbcb38b66	-0.021917056
11	0xbdf0e86c	-0.11763081
12	0x3d12b655	0.035818417
13	0xbe5aeaa5	-0.21378572
14	0xbdb6e008	-0.08929449
15	0x3deacd1f	0.11464905
16	0xbed424b9	-0.41434267
17	0xbef2ac13	-0.47396907
18	0x3e736656	0.23769507
19	0x3e219703	0.15780263
20	0xbe0bff09	-0.13671507
21	0xbe02b1ee	-0.12763187
22	0x3dd49385	0.103796996
23	0x3e7e9b9e	0.24864051
24	0xbddaa2af	-0.10675561
25	0x3e09f777	0.13473307
26	0x3ebdf8d8	0.37103915
27	0x3e38fc54	0.18065006
28	0xbe81d7bb	-0.25359902
29	0xbed91760	-0.42400646
30	0x3cd82c10	0.026388198
31	0x3f0d41c5	0.5517848
32	0x3e75416b	0.23950736
33	0xbd909a3a	-0.070606664
34	0x3f4e63f6	0.8062128
35	0xbe0fc4d0	-0.14039922
36	0xbe0b4eac	-0.1360423
37	0x3c93de19	0.01805024
38	0x3eb7abed	0.35873356
39	0xbe94edaf	-0.29087588
40	0xbe4a87c9	-0.1977836
41	0x3e4674f2	0.19380549
42	0xbf80060e	-1.0001848
43	0xbe6ceac8	-0.23136437
44	0xbdeb4677	-0.114880495
45	0x3e98d174	0.298473
46	0x3e019425	0.12654169
47	0xbe6d2126	-0.23157176
48	0x3d9f5677	0.07780164
49	0xbddc5db8	-0.10760063
50	0xbda97f52	-0.082762375
51	0x3eb52d7f	0.35386273
52	0xbe68eb04	-0.22745901
53	0xbf200797	-0.6251158
54	0xbe9d82ca	-0.30763847
55	0x3da7c980	0.0819273
56	0xbe907900	-0.28217316
57	0x3e025ef9	0.12731542
58	0x3f1f18f2	0.6214744
59	0xbe1a0d90	-0.15044236
60	0x3e692fa3	0.22772078
61	0x3f0207ca	0.50793135
62	0x3e928339	0.2861574
63	0x3e451559	0.19246425
64	0xbc93a9ba	-0.018025268
65	0x3d550c3b	0.052013617
66	0xbd8e3730	-0.0694412
67	0xbe9f347f	-0.3109474
68	0xbed4725f	-0.41493508
69	0x3e65c65e	0.22438952
70	0xbd1e5f78	-0.038665265
71	0xbeac3c06	-0.33639544
72	0xbcf7c34c	-0.030244492
73	0x3c938a83	0.018010383
74	0xbe79af70	-0.2438333
75	0x3d998984	0.07496932
76	0xbe88c6a1	-0.26714042
77	0x3e8f0236	0.27931374
78	0xbe263b42	-0.16233543
79	0xbe64870f	-0.22317146
80	0x3cdcf13b	0.026970496
81	0x3e01c85c	0.12674087
82	0xbe114cfa	-0.1418952
83	0xbdbe54e7	-0.092935376
84	0x3ee22078	0.44165397
85	0xbe08f8ea	-0.13376203
86	0xbf08d441	-0.53448874
87	0xbf03e16e	-0.51515853
88	0xbe2390fe	-0.15973279
89	0xbe35abf9	-0.17741384
90	0x3dffc862	0.12489392
91	0x3b0fd0dd	0.002194456
92	0x3c74eae9	0.014948585
93	0xbe5af821	-0.21383716
94	0xbe31410b	-0.17309968
95	0xbb0ac2c8	-0.0021173228
96	0x3d90c238	0.07068294
97	0xbd862ff8	-0.06552118
98	0x3dabefcb	0.08395346
99	0x3c92822f	0.017884342
100	0x3e2d172b	0.16903369
101	0x3e83ed26	0.25766867
102	0x3eb620af	0.3557181
103	0xbe85ea7c	-0.2615546
104	0xbe9349cd	-0.28767243
105	0x3eb915e7	0.36149523
106	0xc064f50c	-3.5774565
107	0x3e2ba890	0.1676352
108	0x3d778625	0.060430665
109	0xbe91312e	-0.28357834
110	0xbd223269	-0.039598856
111	0xbd922179	-0.07135291
112	0xbe9224de	-0.28543752
113	0x3e156430	0.14589
114	0x3eb9ee92	0.36314827
115	0xbe09557d	-0.13411517
116	0x3e78dae6	0.24302253
117	0x3d3e8c35	0.04652043
118	0x3e073430	0.13203502
119	0xbe9a0383	-0.30080804
120	0x3e30aa9f	0.17252587
121	0x3d1c123b	0.038103323
122	0x3c031610	0.008000866
123	0x3e57e489	0.21083273
124	0xbdd576b5	-0.10423032
125	0xbcedb518	-0.029017016
126	0x3e1e613b	0.15466778
127	0x3e6063d4	0.21913081
128	0xbe87bb8d	-0.26510277
129	0xbeaf4abd	-0.34236708
130	0x3ecac0ec	0.39600313
131	0x3d827b2f	0.06371152
132	0xbd82fffb	-0.06396481
133	0xbe69ded0	-0.22838902
134	0xbe7c5664	-0.2464233
135	0xbeb34fb2	-0.3502174
136	0x3e182e89	0.14861502
137	0x3e2b3bcb	0.16722028
138	0x3d00d924	0.03145708
139	0xbe498a30	-0.1968162
140	0xbe180760	-0.14846563
141	0xbd53f1b9	-0.051744197
142	0xbe0c07be	-0.13674828
143	0xbe91bdd4	-0.2846514
144	0x3e6125ef	0.21987127
145	0xbe4763f8	-0.19471729
146	0x3ed12d5f	0.40854928
147	0x3e93d056	0.28869885
148	0x3cac4e22	0.02103335
149	0xbe218793	-0.15774374
150	0x3e4c292b	0.1993758
151	0x3ee27166	0.4422714
152	0x3e43f027	0.1913458
153	0xbe722be9	-0.23649563
154	0x3e1e583c	0.15463346
155	0x3e9bde0a	0.3044284
156	0x3e98f869	0.29877022
157	0xbeafb597	-0.3431823
158	0xbe4d5670	-0.20052505
159	0x3e8bb9e6	0.27290267
160	0x3d41b585	0.04729225
161	0x3d5ba3f4	0.053623155
162	0xbc59e02d	-0.013298077
163	0xbe456fe6	-0.19280967
164	0xbe50baae	-0.20383713
165	0x3f09206c	0.53565097
166	0x3ea4b690	0.32170534
167	0x3d1d52d4	0.03840907
168	0xbe7b3c4f	-0.24534725
169	0xbea912f6	-0.3302228
170	0x3ec97822	0.39349467
171	0xbd64b9a8	-0.055841118
172	0xbebb2f48	-0.3655951
173	0x3e54860b	0.20754258
174	0xbd8f11cf	-0.069858186
175	0x3e6eaeca	0.23308864
176	0xbe366154	-0.17810565
177	0xbde8b39a	-0.11362381
178	0xbea17755	-0.31536356
179	0x3db9c80c	0.09071359
180	0xbf12a697	-0.57285446
181	0x3e2586fb	0.16164772
182	0x3efdfadf	0.49605462
183	0x3ec94ecd	0.39317933
184	0x3e46cfb1	0.19415165
185	0xbe8340be	-0.25635332
186	0xbe789f29	-0.24279465
187	0x3c048f26	0.00809077
188	0xbe4486a6	-0.1919199
189	0x3e8af8b7	0.2714288
190	0x3ed0afbe	0.4075908
191	0x3ecd9f90	0.401608
192	0xbdf68a52	-0.12038101
193	0x3d84855f	0.06470751
194	0xbe86fd24	-0.26365006
195	0xbe667d1a	-0.2250866
196	0x3e427927	0.18991528
197	0x3eeeaf0b	0.46617922
198	0x3e246e3f	0.1605768
199	0x3dd5ee5d	0.10445855
200	0x3eb4dbe8	0.35324025
201	0x3d948ca4	0.072533876
202	0xbda3d2a8	-0.07999164
203	0x3dcc87d6	0.09986846
204	0xbe2e1241	-0.16999151
205	0x3b83ca97	0.0040219533
206	0xbddbdd06	-0.10735516
207	0xbd9b7e75	-0.07592479
208	0x3de5062f	0.1118282
209	0xbe22a373	-0.15882663
210	0x401b5b33	2.4274414
211	0xbf3908db	-0.7227914
212	0xbe0aa114	-0.13538009
213	0x3ea5ad8d	0.3235897
214	0xbec85e2b	-0.39134344
215	0xbf5294f4	-0.82258534
216	0xbd90b4c2	-0.07065727
217	0x3d79624f	0.06088477
218	0xbf3c0285	-0.73441344
219	0x3e0d23d6	0.13783202
220	0x3d8a1e85	0.067441024
221	0xbeef5692	-0.46745735
222	0xbee5b97c	-0.44868076
223	0x3de5a262	0.11212613
224	0xbe13a970	-0.14420104
225	0x3dd166f4	0.10224715
226	0x3c828843	0.015934115
227	0xbe261232	-0.16217878
228	0xbef08d7b	-0.4698294
229	0xbe35ff50	-0.17773175
230	0xbe00e501	-0.12587358
231	0xbe2a586e	-0.16635296
232	0x3ee774ac	0.452062
233	0x3ea867da	0.32891732
234	0x3ea9f03b	0.33191094
235	0x3d9d99d0	0.07695353
236	0xbd895907	-0.06706434
237	0xbe362dfc	-0.17790979
238	0x3d7100ba	0.058838584
239	0x3e771084	0.24127394
240	0xbedf3857	-0.4359767
241	0xbe81f85f	-0.25384805
242	0xbe515500	-0.20442581
243	0xbeb02e8d	-0.34410515
244	0xbdbaf195	-0.09128109
245	0x3e470a0a	0.19437423
246	0xbeca51f8	-0.39515662
247	0xbf231525	-0.6370414
248	0xbe15daea	-0.1463429
249	0x3e1138fa	0.14181891
250	0xbef02edf	-0.4691076
251	0xbe80b7ec	-0.2514032
252	0xbc3dc077	-0.011581532
253	0x3f242975	0.6412576
254	0x3e95b97e	0.29243082
255	0x3dd9e7f8	0.10639948

fc1.bias f4 [32]
0	0xbea63114	-0.3245932
1	0xbe89dbb2	-0.26925427
2	0x3e9fd1fb	0.3121489
3	0xbe30020d	-0.17188282
4	0x3e99e21b	0.30055317
5	0x3e1ba456	0.15199408
6	0xbeab8b8b	-0.335049
7	0x3eedd160	0.46448803
8	0xbda03eca	-0.07824476
9	0xbb04c73b	-0.0020260352
10	0xbe6d531c	-0.23176235
11	0x3ea91b1d	0.33028498
12	0x3d82dec0	0.063901424
13	0xbea118eb	-0.31464323
14	0xbcd21dd6	-0.025648993
15	0x3c6c1c63	0.014411065
16	0xbc72d269	-0.0148206735
17	0xbece079d	-0.40240183
18	0x3ed57ce8	0.41696858
19	0xbcfe90bf	-0.03107488
20	0x3e82dc46	0.2555868
21	0x3df335ee	0.11875521
22	0xbcb260aa	-0.021774609
23	0x3e471ce3	0.19444613
24	0x3eb067c1	0.34454158
25	0xbd4f792c	-0.050652668
26	0x3b748650	0.0037311502
27	0xbe9aa58b	-0.30204424
28	0xbe847706	-0.25872058
29	0x3cc72616	0.024310153
30	0xbecf8d40	-0.40537453
31	0x3ee0c7a1	0.43902305

fc2.weight f4 [64, 32]
0	0xbde9f9e4	-0.11424616
1	0xbe0ac6d7	-0.13552414
2	0xbd915f3d	-0.070982434
3	0x3cd4c0b4	0.025970794
4	0x3db0e749	0.08637864
5	0x3ed61b57	0.41817734
6	0xbdb212b0	-0.086949706
7	0x3d69ba8e	0.057062678
8	0xbe4e304f	-0.20135616
9	0x3e4b9b38	0.1988343
10	0xbe1f8c2c	-0.15580815
11	0x3d321969	0.043481264
12	0xbe2a46fd	-0.16628642
13	0x3e7bcb50	0.24589276
14	0xbc89aa77	-0.016804917
15	0x3e005988	0.12534153
16	0xbe25926e	-0.1616914
17	0xbd40ba03	-0.047052395
18	0xbe10ae13	-0.14128904
19	0xbe8feb15	-0.2810904
20	0x3dd9f4e6	0.10642414
21	0x3db5ff7f	0.08886623
22	0xbdb7bbc6	-0.08971362
23	0x3ec5cef1	0.38634446
24	0xbca15881	-0.019695522
25	0xbd7ee6e7	-0.062231924
26	0xbdcc7dff	-0.09984969
27	0xbe675ccd	-0.22593994
28	0xbdec6ab5	-0.1154379
29	0x3de1dbc6	0.110282466
30	0xbe44794a	-0.19186893
31	0xbd4d1ec1	-0.050078157
32	0xbdc8b878	-0.098008096
33	0xbe50b863	-0.20382838
34	0xbe05febb	-0.13085453
35	0xbcbd4eab	-0.0231088
36	0x3d8a5f5f	0.06756472
37	0xbe13ac81	-0.14421274
38	0xbe830fc1	-0.25597957
39	0xbd1c5035	-0.03816243
40	0xbe0fffc6	-0.14062414
41	0x3df275b5	0.11838857
42	0xbe0bada7	-0.13640462
43	0x3e5a3c92	0.21312168
44	0x3dacccdc	0.08437511
45	0xbdd4a679	-0.10383315
46	0xbcea7cf3	-0.028624034
47	0x3e85df03	0.26146707
48	0xbd1ea870	-0.038734853
49	0xbe2320b6	-0.15930447
50	0x3dfe18dc	0.12407085
51	0x3e4c7b96	0.1996902
52	0x3dd395ad	0.10331283
53	0xbde93725	-0.11387471
54	0xbb8c0b12	-0.0042737806
55	0x3ef3c289	0.47609356
56	0x3e6673e7	0.2250515
57	0xbe02aee1	-0.12762024
58	0x3d90d74b	0.07072314
59	0x3de89258	0.11356038
60	0xbc871d23	-0.016493386
61	0x3cff4dd0	0.031165034
62	0xbe42c2ef	-0.19019674
63	0x396ea03b	0.00022757139
64	0x3e4a69fc	0.19766992
65	0xbdbf5c4a	-0.093437746
66	0x3e1f845d	0.15577836
67	0xbd68f4ea	-0.056874193
68	0x3d9cde03	0.07659533
69	0x3cc02745	0.023456225
70	0xbcf10948	-0.029423371
71	0xbdd6650f	-0.10468494
72	0x3d8c14d2	0.06839909
73	0x3dc9547b	0.098305665
74	0xbde95812	-0.11393751
75	0xbe105eed	-0.14098711
76	0x3d079c89	0.033108268
77	0x3e0e42af	0.13892625
78	0xbead8dad	-0.33897153
79	0xbdb56265	-0.08856658
80	0x3cf3d2d7	0.029763622
81	0xbdbb068a	-0.091321066
82	0xbdeedbc2	-0.11663009
83	0x3e17ac90	0.14811921
84	0xbdb95e61	-0.090512045
85	0x3e49f8a1	0.1972375
86	0xbc5da354	-0.01352771
87	0x3e349df8	0.17638385
88	0xbcfbb9cd	-0.030728245
89	0x3df1c984	0.11806014
90	0x3c0a7fe8	0.008453347
91	0xbdde2028	-0.10845977
92	0xbd275640	-0.04085374
93	0xbe532da8	-0.20622885
94	0xbcfbad1f	-0.030722199
95	0xbca324de	-0.01991504
96	0xbcaca89e	-0.021076497
97	0x3e565508	0.20930874
98	0xbd088741	-0.033332113
99	0x3d3a781e	0.04552471
100	0xbd186e3d	-0.037214506
101	0xbc8def89	-0.017326133
102	0x3e876e19	0.26451185
103	0xbdc50e83	-0.096219085
104	0x3eee9441	0.46597484
105	0xbc4ffe78	-0.012694947
106	0xbdd9615c	-0.10614273
107	0x3db1bbf9	0.08678431
108	0x3e2d6598	0.16933286
109	0xbe7b3709	-0.24532713
110	0xbdfff7b5	-0.12498418
111	0xbde48f55	-0.11160151
112	0xbdd4ca6a	-0.1039017
113	0x3de2bed4	0.11071554
114	0xbe750c7c	-0.23930544
115	0xbec157f0	-0.37762403
116	0xbb4ea219	-0.0031529723
117	0xbe1d55f8	-0.15364826
118	0x3e0d2134	0.13782197
119	0xbb89ade4	-0.0042016376
120	0xbe831411	-0.25601247
121	0xbd2fb1f4	-0.04289432
122	0xbe418bef	-0.18901037
123	0xbe3d93c0	-0.18513393
124	0x3e1cc1a1	0.15308239
125	0xbe2eb2ab	-0.17060344
126	0x3e78ae6c	0.24285287
127	0x3da460c0	0.08026266
128	0x3d52ae74	0.051435903
129	0xbe353ce8	-0.17699015
130	0xbe129a10	-0.14316583
131	0xbdd8da6d	-0.105885364
132	0xbe65052e	-0.22365257
133	0xbe1177b6	-0.14205822
134	0xbe2915b2	-0.16512182
135	0xbc4a64a6	-0.012353098
136	0xbec09b2b	-0.37618384
137	0xbd30e96a	-0.04319135
138	0x3e2ae8f0	0.16690421
139	0x3e13ed01	0.14445879
140	0x3e121154	0.14264423
141	0xbd695f03	-0.056975376
142	0x3da44f15	0.08022896
143	0x3d172659	0.036901806
144	0xbd86416b	-0.06555446
145	0xbe09441d	-0.1340489
146	0x3e002727	0.12514935
147	0x3e435817	0.19076572
148	0xbe7b0f55	-0.24517567
149	0xbd3a2adc	-0.04545103
150	0xbe15ef01	-0.14641954
151	0x3e2e1d18	0.17003286
152	0x3e14cb97	0.14530788
153	0x3e054371	0.13014008
154	0x3e50c8a0	0.20389032
155	0x3da46212	0.08026518
156	0x3b98c0f3	0.004661673
157	0xbe0fd49c	-0.14045948
158	0xbc5f553d	-0.013631162
159	0x3cf6b987	0.030117763
160	0xba90eabb	-0.0011056283
161	0xbc28a043	-0.010292116
162	0x3e5ffe93	0.21874456
163	0x3c208cd6	0.009799203
164	0xbdd0b128	-0.1019004
165	0xbf1689c4	-0.58803964
166	0x3f0819f5	0.5316461
167	0xbecea104	-0.4035722
168	0xbd8b4b43	-0.068014644
169	0xbb77af24	-0.00377936
170	0xbde283a2	-0.11060263
171	0x3cad000f	0.021118192
172	0xbd47052a	-0.04858891
173	0xbeb7098e	-0.35749477
174	0xbcb51483	-0.022104507
175	0x3df9c5b7	0.12195914
176	0x3ded81f0	0.11597049
177	0xbe225286	-0.15851793
178	0x3e087949	0.13327517
179	0xbd65d5f8	-0.05611226
180	0xbe188a5a	-0.14896527
181	0x3e80670b	0.25078616
182	0xbcd7bbf3	-0.026334738
183	0xbe2b013c	-0.1669969
184	0xbee024f2	-0.43778187
185	0x3c8d31b7	0.01723562
186	0x3ebc6f9a	0.36803895
187	0x3eaac3c7	0.3335249
188	0xbd9be96f	-0.07612883
189	0x3dc96883	0.09834387
190	0x3d0c6ce6	0.03428354
191	0xbf009825	-0.50232154
192	0x3e0953e4	0.13410908
193	0x3e819e1a	0.25315934
194	0xbc1ddf1d	-0.009635714
195	0xbdbcc45b	-0.09217139
196	0x3e2817b8	0.16415298
197	0x3d9c0ffa	0.07620235
198	0xbd06cbdb	-0.032909255
199	0xbe741d3f	-0.23839281
200	0x3d9a450e	0.075327024
201	0xbe871419	-0.2638252
202	0xbd26f3b4	-0.040759757
203	0xbe350761	-0.17678596
204	0x3e324984	0.17410856
205	0x3c737fe0	0.014862031
206	0x3d86d85e	0.065842375
207	0xbda1eb13	-0.07906165
208	0x3d5abcab	0.053402584
209	0x3d6709c4	0.056405798
210	0xba9a9ff2	-0.0011796935
211	0x3d90a1a0	0.070620775
212	0xbd5b1f2f	-0.053496536
213	0xbdeb5d12	-0.11492361
214	0x3d87274a	0.06599291
215	0xbedda08f	-0.4328656
216	0xbe478db9	-0.19487657
217	0xbdb0f6b9	-0.086408086
218	0xbdbe5a44	-0.092945606
219	0x3dba8b7e	0.09108637
220	0x3d985a18	0.07439059
221	0xbe0f4878	-0.13992488
222	0x3e92ea0a	0.28694183
223	0x3c933a60	0.017972171
224	0xbe2a1192	-0.16608265
225	0x3e238e34	0.15972215
226	0x3dc04915	0.09388939
227	0xbe15f7cb	-0.14645307
228	0x3bc2c3b9	0.005943742
229	0x3db42e92	0.08797945
230	0xbd7772e2	-0.060412295
231	0xbe0074f1	-0.1254461
232	0x3d25736a	0.04039327
233	0xbe1c030a	-0.15235534
234	0x3dc4be5d	0.096066214
235	0xbe3790e2	-0.17926362
236	0xbc8d3dfb	-0.017241469
237	0x3cfa24a2	0.030535046
238	0x3e1d245b	0.153459
239	0xbd389fa7	-0.04507413
240	0xbe5a248b	-0.21303003
241	0xbe059e85	-0.13048752
242	0xbe322767	-0.17397843
243	0xbc587006	-0.013210302
244	0x3ddc8a13	0.10768523
245	0xbd1d771b	-0.038443666
246	0xbe478667	-0.19484864
247	0xbeeb6ae0	-0.45979977
248	0xbe08e481	-0.13368417
249	0x3d8fcd2f	0.070215575
250	0x3c7afcba	0.015319044
251	0xbe30c20e	-0.17261526
252	0xbd9f95c1	-0.07792235
253	0xbd84f38e	-0.06491767
254	0x3e00082b	0.12503116
255	0xbd986285	-0.07440666

fc2.bias f4 [64]
0	0xbcdc4332	-0.02688751
1	0xbdec6693	-0.11543002
2	0x3d510240	0.051027536
3	0xbe33cbe3	-0.17558245
4	0xbd871194	-0.0659515
5	0xbd8c92a8	-0.0686391
6	0x3cbc10e6	0.022957277
7	0x3e5caacb	0.21549527
8	0xbd11e8b8	-0.03562233
9	0xbd9672e9	-0.07346136
10	0x3d57cfbf	0.052688356
11	0x3e1ed092	0.15509251
12	0xbd5ee5c4	-0.05441834
13	0x3e51922f	0.20465921
14	0x3d94d230	0.072666526
15	0xbdaf2ea3	-0.08553817
16	0x3d703c7a	0.058651425
17	0x3d835d58	0.06414288
18	0xbd8569df	-0.06514334
19	0x3b33b049	0.0027418307
20	0xbe34c3c7	-0.17652808
21	0xbdf2747a	-0.118386224
22	0xbe11f7bb	-0.14254658
23	0x3d2f42c5	0.042788286
24	0x3cfb5f3d	0.030685062
25	0x3e413b02	0.18870166
26	0xbdaa3bb4	-0.08312169
27	0xbd25a3b1	-0.04043931
28	0xbe236153	-0.15955095
29	0xbe7d55f4	-0.2473982
30	0xbca8c87e	-0.020603415
31	0xbdb590f3	-0.088655375
32	0xb9f8fa5d	-0.0004748878
33	0xbcaa20d3	-0.020767605
34	0x3cee2a33	0.029072857
35	0x3e157a1a	0.1459736
36	0x3e42db3f	0.19028948
37	0x3d216e32	0.03941173
38	0xbcc36d29	-0.023855763
39	0x3d4c1867	0.04982796
40	0x3d23ec06	0.04002001
41	0x3dc81155	0.09768931
42	0xbdd896ab	-0.10575613
43	0x3e49b98e	0.1969969
44	0x3e13e66a	0.14443365
45	0x3c27f89f	0.010252147
46	0xbd951734	-0.07279816
47	0x3e272016	0.16320834
48	0xbe158278	-0.14600551
49	0xbe02ddb0	-0.1277988
50	0x3dc62d59	0.09676618
51	0xbe0d79fa	-0.13816062
52	0x3d6bf3c2	0.057605512
53	0x3c808301	0.015687468
54	0xbbe4bd1d	-0.006980552
55	0xbe0ba88a	-0.13638511
56	0x3d1d0754	0.038337067
57	0xbd41bd36	-0.047299586
58	0xbe106d70	-0.14104247
59	0xbe0f7b80	-0.14011955
60	0x3e1dea4f	0.15421413
61	0x3dcd7e1d	0.1003382
62	0x3e052693	0.13002996
63	0x3d95382c	0.072861046

out.weight f4 [1, 64]
0	0x3c184732	0.009294318
1	0x3e24e860	0.16104269
2	0x3bb533cc	0.0055298563
3	0xbe407f84	-0.18798643
4	0x3dfef2d4	0.124486595
5	0xbe51cba7	-0.20487843
6	0xbd45b9a8	-0.04827276
7	0xbc7a29fc	-0.015268799
8	0x3e32dc49	0.17466845
9	0xbdfd4768	-0.12367135
10	0x3ceb8f1f	0.028754769
11	0xbc2baacf	-0.010477736
12	0x3c93362d	0.017970169
13	0xbd86e607	-0.06586843
14	0x3be4b774	0.006979877
15	0xbe618d5f	-0.22026585
16	0xbdb51c43	-0.08843281
17	0xbd816dae	-0.06319748
18	0xbd59607e	-0.053070538
19	0xbcd20222	-0.025635783
20	0x3d7a7d08	0.061154395
21	0x3d43b357	0.047778454
22	0xbb93273f	-0.0044907625
23	0xbbfe5bb4	-0.0077623967
24	0xbd4ea75a	-0.050452568
25	0xbd4abd2f	-0.049496826
26	0xbdc3f271	-0.095677264
27	0x3d999505	0.07499126
28	0x3e33dae0	0.17563963
29	0x3dd80ab5	0.10548917
30	0xbe9ec5fd	-0.31010428
31	0xbb64f8a2	-0.0034938236
32	0xbd13b662	-0.036062606
33	0x3d14ade8	0.036298662
34	0xbdcf47b6	-0.101211
35	0x3e18682e	0.14883491
36	0xbe1132cd	-0.14179535
37	0x3e2ada66	0.16684875
38	0x3ebbba37	0.36665508
39	0xbcfcb3e8	-0.030847505
40	0xbe609fed	-0.21936007
41	0x3dab0885	0.08351234
42	0x3c19eb84	0.00939453
43	0x3dc35fd2	0.09539761
44	0x3d8c488a	0.06849773
45	0xbca3fd41	-0.020018222
46	0xbe331ac5	-0.1749068
47	0xbd847fe0	-0.06469703
48	0xbd18a249	-0.037264142
49	0x3b8034ba	0.0039125355
50	0xbe651006	-0.22369394
51	0xbe136eac	-0.14397687
52	0x3d4d69d0	0.05014974
53	0xbe24088d	-0.16018887
54	0x3d50a718	0.050940603
55	0xbd4119e5	-0.047143836
56	0x3d18017e	0.037110798
57	0x3ca60428	0.020265654
58	0x3e8ce11c	0.27515495
59	0xbda85b51	-0.08220542
60	0xbdcf2ccb	-0.101159655
61	0xbe2d8b10	-0.1694758
62	0xbd561f29	-0.05227581
63	0xbe6cdf72	-0.23132113
